model.pth (torch, 77044 bytes, 6 tensors)

1.weight f4 [128, 12]
0.19056055 0.21483833 -0.09729478 -0.22075932 0.12943447 -0.22589481 0.117221475 -0.008468717
-0.016465127 0.0104931295 -0.13786322 -0.1675072 0.038944095 0.16136423 -0.20353037 0.11054358
0.06637645 -0.08955255 0.06783053 0.009466052 -0.1570284 -0.26926565 0.10090408 0.20023796
0.2803794 -0.03245026 0.08564526 0.029680729 -0.23316023 0.13416201 0.20512143 0.23006386
0.08938104 0.14423501 -0.12678066 -0.28178784 0.21059078 -0.25233066 0.2698083 -0.035742253
-0.25669593 -0.24692592 -0.17164412 -0.06649804 -0.08815347 -0.26943067 -0.06298578 0.07347092
-0.012968212 -0.13557199 0.045001507 0.158521 -0.19433534 0.10152003 0.18582946 -0.09344809
0.14112583 -0.13089941 0.004068643 -0.20089552 -0.23662408 0.22220266 0.21782541 0.102645606
-0.06878501 -0.20772105 0.24332517 -0.20706077 0.03420821 0.13788623 -0.03694734 0.22881782
0.21668714 -0.04039535 -0.2631414 -0.07938565 0.185166 0.091674596 -0.22128284 -0.28503513
-0.036076307 -0.099924535 -0.0014781952 -0.20625328 -0.034251958 -0.15904158 0.2679941 0.21839625
0.12679848 0.0032870471 0.16787001 -0.13998541 0.048168927 -0.2746354 0.038674325 0.1081346
0.19254309 -0.17886798 -0.12274435 0.19379643 0.25207496 0.19870949 -0.1918291 0.15744466
-0.2076987 0.06506321 0.25508946 0.032026976 0.015506595 -0.0061788857 0.037478507 -0.124289006
-0.10468547 -0.010959417 -0.2674668 -0.27012873 0.12894693 -0.24542558 -0.0034884214 0.11188662
0.20975149 0.104438335 0.22875392 -0.005358994 -0.28087905 -0.17247769 -0.19428982 0.28490955
-0.27854612 -0.03858778 -0.033885807 0.18912685 0.18673518 0.0066471994 -0.22744358 -0.1484575
-0.24633822 0.23413658 -0.18135427 0.1857166 0.28238827 -0.24187987 -0.095502555 0.02230972
0.14027324 -0.18676767 -0.25062433 -0.06413722 0.18277428 0.26386482 -0.06085831 -0.039632276
0.21442133 0.07254878 -0.037954897 0.06662515 -0.17893828 -0.22405276 -0.15082379 0.07244575
0.25155717 -0.03558153 -0.25632295 -0.09978932 -0.238713 0.2002778 0.028542906 -0.13314275
-0.1440879 0.20742685 0.16492173 0.1418406 0.22143626 0.28862154 0.17839119 0.022209108
-0.2089164 0.11064038 -0.063366756 -0.2651895 0.14383677 0.041038245 -0.20673695 0.19960809
-0.07641421 -0.09781045 -0.17780274 0.10933396 0.28816855 -0.24770726 0.07693496 -0.025318831
-0.263254 -0.04267575 0.23803681 -0.1539208 0.2296989 0.24870431 -0.12808032 -0.045825362
-0.121800885 0.064694434 -0.049572513 -0.26439077 -0.08312495 -0.06755613 0.13241562 0.01575026
0.026233047 -0.01922819 0.12474397 -0.011285424 0.16844136 -0.24049726 -0.042639986 0.111393034
-0.10178715 0.23560435 -0.26918247 0.14702135 -0.005422473 0.008262634 -0.07858294 0.21700686
0.20073876 0.16019002 0.05667585 -0.013969064 0.13831764 0.07870647 -0.14370874 -0.12722489
0.19654068 0.27783978 -0.07466222 0.03478107 0.19431326 0.23520166 0.104448676 -0.042688295
-0.078214794 0.20171148 0.21126401 -0.22921261 -0.25768965 -0.107426435 -0.21299496 0.010389626
-0.23842098 0.20911065 -0.27721894 0.23408633 0.21219176 -0.19923796 -0.17025526 0.12689415
00000000: 4e22 433e 94fe 5b3e 7c42 c7bd bb0e 62be
00000010: 788a 043e f850 67be d011 f03d 60c0 0abc
00000020: e0e1 86bc 60eb 2b3c 042c 0dbe 0287 2bbe
00000030: d883 1f3d aa3c 253e 446a 50be ac64 e23d
00000040: 60f0 873d 5467 b7bd bcea 8a3d 8017 1b3c
00000050: 0ecc 20be 30dd 89be cca6 ce3d 2e0b 4d3e
00000060: e48d 8f3e 90ea 04bd c866 af3d 0025 f33c
00000070: 8ec1 6ebe c461 093e 5a0b 523e dc95 6b3e
00000080: 680d b73d 58b2 133e cad2 01be 7f46 90be
00000090: 1ca5 573e 7c31 81be 5024 8a3e 7866 12bd
000000a0: a66d 83be 26da 7cbe 7ac3 2fbe 2030 88bd
000000b0: ce89 b4bd d1f2 89be b0fe 80bd ec77 963d
000000c0: a078 54bc 62d3 0abe 8053 383d 5453 223e
000000d0: d8ff 46be bce9 cf3d 144a 3e3e b661 bfbd
000000e0: 4a83 103e 7f0a 06be 4052 853b 8eb7 4dbe
000000f0: 954d 72be 1889 633e a00d 5f3e dc37 d23d
00000100: 28df 8cbd d4b4 54be 3c2a 793e bd07 54be
00000110: e81d 0c3d 0c32 0d3e 1856 17bd 384f 6a3e
00000120: 3ce3 5d3e 9875 25bd 78ba 86be f294 a2bd
00000130: 289c 3d3e e4bf bb3d f897 62be 20f0 91be
00000140: c0c4 13bd 3ca5 ccbd 00c0 c1ba 0f34 53be
00000150: c84b 0cbd ccdb 22be 8636 893e 44a3 5f3e
00000160: 76d7 013e 806b 573b 1ee6 2b3e 5658 0fbe
00000170: c84c 453d 039d 8cbe f868 1e3d ac75 dd3d
00000180: 042a 453e 2b29 37be 6461 fbbd 9272 463e
00000190: f80f 813e 807a 4b3e d96e 44be 2c39 213e
000001a0: f8ae 54be dc3f 853d 169b 823e b82e 033d
000001b0: 600f 7e3c 4078 cabb 1083 193d 3c8b febd
000001c0: 5665 d6bd 208f 33bc 69f1 88be 504e 8abe
000001d0: aa0a 043e d850 7bbe 009e 64bb d024 e53d
000001e0: 18c9 563e c4e3 d53d 783e 6a3e 809a afbb
000001f0: 61cf 8fbe fe9d 30be e9f3 46be aadf 913e
00000200: 999d 8ebe 380e 1ebd d8cb 0abd 78aa 413e
00000210: 8237 3f3e c0d0 d93b f8e6 68be 3e05 18be
00000220: 1640 7cbe 80c1 6f3e efb4 39be 7e2c 3e3e
00000230: 3295 903e 5baf 77be d896 c3bd e0c2 b63c
00000240: caa3 0f3e 0640 3fbe d551 80be 605a 83bd
00000250: 2e29 3b3e 4a19 873e 9046 79bd 7455 22bd
00000260: 4491 5b3e 7494 943d 9876 1bbd c472 883d
00000270: 993b 37be 166e 65be 8d71 1abe 705e 943d
00000280: 1acc 803e f0bd 11bd c33c 83be 585e ccbd
00000290: 2e71 74be a015 4d3e d0d2 e93c 9356 08be
000002a0: c78b 13be b467 543e 3ee1 283e aa3e 113e
000002b0: 30c0 623e 34c6 933e 2eac 363e e0ef b53c
000002c0: 2eee 55be 6c97 e23d 6ec6 81bd ebc6 87be
000002d0: f249 133e b817 283d dab2 53be 1066 4c3e
000002e0: 0e7f 9cbd d850 c8bd ec11 36be 7cea df3d
000002f0: d48a 933e f9a6 7dbe 1490 9d3d 7069 cfbc
00000300: 3ac9 86be c4cc 2ebd ecbf 733e 6a9d 1dbe
00000310: 3036 6b3e 58ac 7e3e 7d27 03be 60b3 3bbd
00000320: be72 f9bd 847e 843d 8c0c 4bbd 3a5e 87be
00000330: 6a3d aabd de5a 8abd f697 073e b006 813c
00000340: b0e6 d63c 7084 9dbc c479 ff3d 80e6 38bc
00000350: e47b 2c3e ea44 76be 44a7 2ebd 0822 e43d
00000360: c875 d0bd 4442 713e 49d2 89be c48c 163e
00000370: 00af b1bb 0060 073c 18f0 a0bd 0c37 5e3e
00000380: 768e 4d3e da08 243e f024 683d 80de 64bc
00000390: 24a3 0d3e dc30 a13d 6228 13be 3e47 02be
000003a0: f641 493e 0441 8e3e 82e8 98bd 9876 0e3d
000003b0: 0efa 463e b4d8 703e 30e9 d53d ecd9 2ebd
000003c0: 142f a0bd 748d 4e3e 9855 583e b6b6 6abe
000003d0: e6ef 83be 6402 dcbd 5a1b 5abe 4039 2a3c
000003e0: a124 74be 1a21 563e a4ef 8dbe 54b4 6f3e
000003f0: cc48 593e 0905 4cbe 6557 2ebe 8af0 013e

1.bias f4 [128]
-0.13044916 0.11637759 0.19292805 0.15156758 -0.28571215 0.048186213 -0.17056942 0.084620655
-0.07317339 -0.0972926 -0.08915196 0.0814884 -0.052112132 0.044362515 -0.22133225 0.028318375
-0.030287415 0.14770299 0.18185332 0.06577754 0.253695 0.25216317 -0.19140826 -0.23452449
0.046225816 -0.08283883 -0.09247056 -0.18494406 -0.13669226 0.0535329 -0.089408204 -0.14207073
-0.16540326 -0.2649775 0.19599754 0.1088095 0.11436471 -0.19627723 0.13607717 0.09068915
-0.2668281 -0.15823436 0.18177393 -0.16102135 -0.08798061 0.00763309 0.026527852 0.22812563
0.06287542 -0.14108394 -0.13775162 0.2576205 0.07397762 0.100449145 -0.2624483 0.034342617
0.17453459 0.13774803 0.11581838 0.11807296 0.002565235 -0.28077528 0.21005118 0.25653088
-0.17007917 -0.045774713 0.27265733 -0.26448002 -0.10357748 -0.014792085 0.28531265 -0.016824692
0.014655232 -0.122728005 -0.07898095 -0.21075363 0.0657188 0.13496572 0.015481144 0.21294546
-0.029888004 0.21734387 -0.089243054 0.12939683 -0.21005055 0.14782286 0.1685392 0.065169126
0.028189719 -0.007235527 -0.076019645 -0.069974765 -0.17781723 -0.14771973 0.090906024 -0.13996759
-0.01801166 0.09000322 0.075239986 -0.07111001 -0.2826803 0.12438211 0.22754908 0.19631773
0.2850142 -0.13542132 -0.016422063 -0.04452391 -0.049231067 -0.14320518 -0.20082796 -0.079627916
-0.0781042 -0.03829965 -0.25897437 0.26107794 0.05000323 0.17150903 -0.2755084 -0.09598032
0.09751886 0.2511844 -0.23154978 0.040271223 0.103824556 -0.25709385 0.15079716 -0.11840132
00000000: 7794 05be 6057 ee3d ee8e 453e 8834 1b3e
00000010: dd48 92be e85e 453d c0a9 2ebe 984d ad3d
00000020: eedb 95bd 5841 c7bd 4e95 b6bd 64e3 a63d
00000030: 8873 55bd 78b5 353d eca4 62be f0fb e73c
00000040: 501d f8bc 743f 173e c237 3a3e 60b6 863d
00000050: 50e4 813e 881b 813e 8700 44be 3027 70be
00000060: 4857 3d3d 68a7 a9bd 3461 bdbd fa61 3dbe
00000070: 0ef9 0bbe 5045 5b3d a61b b7bd fd7a 11be
00000080: 795f 29be 22ab 87be 94b3 483e 84d7 de3d
00000090: 0c38 ea3d e6fc 48be d057 0b3e 3cbb b93d
000000a0: b19d 88be 3008 22be f222 3a3e c8e2 24be
000000b0: 2e2f b4bd 001f fa3b f050 d93c c499 693e
000000c0: d4c4 803d 4f78 10be c30e 0dbe d6e6 833e
000000d0: 9481 973d 48b8 cd3d a05f 86be d8aa 0c3d
000000e0: 32b9 323e d20d 0d3e 3032 ed3d 3cd0 f13d
000000f0: 801d 283b c7c1 8fbe a817 573e 0458 833e
00000100: 3c29 2ebe 447e 3bbd be99 8b3e ed69 87be
00000110: 6e20 d4bd 805a 72bc 8014 923e f0d3 89bc
00000120: 801c 703c d258 fbbd c4c0 a1bd cdcf 57be
00000130: 9497 863d 7434 0a3e a0a4 7d3c 600e 5a3e
00000140: b0d7 f4bc 648f 5e3e 10c5 b6bd 9a80 043e
00000150: 7e17 57be e05e 173e 8a95 2c3e 6477 853d
00000160: 20ee e63c 0018 edbb 30b0 9bbd ee4e 8fbd
00000170: b815 36be d743 17be f02c ba3d aa53 0fbe
00000180: 308d 93bc 9c53 b83d 6c17 9a3d 20a2 91bd
00000190: 79bb 90be 0cbc fe3d a002 693e 8407 493e
000001a0: 62ed 913e e3ab 0abe 9087 86bc b45e 36bd
000001b0: 84a6 49bd 61a4 12be d8a5 4dbe f613 a3bd
000001c0: 18f5 9fbd 18e0 1cbd 4a98 84be 02ac 853e
000001d0: 30d0 4c3d 10a0 2f3e 700f 8dbe 5491 c4bd
000001e0: f8b7 c73d 3e9b 803e 631b 6dbe 70f3 243d
000001f0: f8a1 d43d cea1 83be 926a 1a3e 647c f2bd

3.weight f4 [128, 128]
-0.051510718 0.06892932 -0.016425826 0.0366256 -0.08665005 -0.0053000078 0.017043352 0.03888478
0.056913488 -0.05785268 0.054737084 -0.057260737 0.026090056 -0.020393007 0.05531057 0.020922355
-0.014296755 -0.03841171 0.014600702 -0.007355109 0.08452236 0.0070541278 -0.0025227293 -0.086178936
0.021364458 0.011874557 0.065131225 0.048861153 0.049052395 0.049600698 -0.031116057 -0.027093869
-0.05421746 -0.048073918 -0.05006681 0.02504687 -0.021280408 0.040825926 -0.051054846 -0.035978477
0.0074755624 -0.019986175 -0.03538623 -0.08064889 0.029786192 0.071239986 0.0087805465 0.04866592
-0.023159206 0.002240695 0.031810522 0.06750394 -0.055406887 0.07201853 0.081535734 -0.07226099
0.058988385 -0.049771633 -0.06286701 0.043457694 0.017505832 -0.05236317 0.041957565 -0.011274822
-0.008392513 -0.020744279 0.0148271695 -0.06224533 0.033555254 -0.03241356 0.08248644 0.021691434
-0.01767324 -0.055259395 0.012360051 0.08537341 -0.058584385 0.07951953 0.010737717 -0.08797109
0.047135852 -0.029123913 -0.043855924 -0.023208044 -0.07996751 -0.007996649 0.05539129 -0.0703688
-0.009425692 -0.07148375 -0.039663166 0.03144235 -0.02761826 -0.015917927 0.028155968 -0.08289369
0.006116919 -0.06677517 -0.018218584 -0.08445076 0.045943238 0.05213595 -0.084586374 -0.0066184253
0.077088244 -0.083685815 0.004611984 -0.080933884 0.01069437 0.06691045 -0.033898044 0.0072462857
0.014766678 -0.013979614 -0.0639755 0.021565601 0.06301262 -0.081347086 0.020579398 -0.03673438
-0.040067017 0.050556995 -0.078590445 0.05797323 -0.043845955 0.07812313 0.08520382 0.046158172
-0.035780493 -0.055678822 0.061635114 -0.07876587 -0.007886022 0.050440468 0.030967921 0.07231977
-0.08738174 -0.059858512 0.008206889 0.05591906 0.060973577 0.014624335 -0.0380876 0.032163657
-0.037552685 0.039511062 0.0018419772 0.025399268 0.039471857 -0.06424027 0.05586619 -0.053742215
-0.07061973 0.025081128 0.0035679638 0.03128846 0.050868236 0.07084095 0.08469892 0.032451354
0.04717029 -0.025849894 0.0020856336 0.023407899 0.031808563 -0.024180561 0.026877277 -0.037748445
-0.046772707 -0.047650646 0.02574943 -0.0033041537 -0.04573914 -0.023378097 -0.011487864 0.063636236
-0.0037028715 -0.0009625107 -0.021818683 -0.07914722 0.022928737 -0.06527017 0.0182406 0.03013964
0.027830467 -0.022897117 0.019922584 0.08435608 0.05709576 -0.04174833 -0.0059944093 0.030324161
-0.023969293 -0.064954795 -0.045456607 -0.034996033 0.061958887 0.041870542 -0.07157901 0.024322495
-0.014902279 -0.0071312115 0.042385153 0.087816335 -0.04168812 0.05643513 -0.07053235 0.08442084
-0.002089806 0.057882704 -0.026045624 -0.072708696 0.07570515 0.07325821 -0.028433003 0.036942028
0.05697643 0.02948872 -0.011747241 0.0075658336 -0.024626754 -0.012360901 0.00065728277 -0.07536962
-0.05361271 -0.019957364 0.047861584 -0.051951207 0.047554202 0.015019454 -0.06621072 -0.06939225
-0.019084685 -0.036486328 0.04967522 0.060473956 -0.035545427 0.062531926 -0.081960216 -0.0036557615
0.018422447 -0.018564187 -0.038085874 0.065684445 -0.08786089 0.027273618 -0.08722523 0.012960374
-0.028186917 0.018738858 -0.014382623 -0.047910262 0.077254154 0.05552151 -0.071901485 -0.08680003
00000000: e7fc 52bd d12a 8d3d 748f 86bc ba04 163d
00000010: 9575 b1bd b0ab adbb 809e 8b3c a645 1f3d
00000020: 1e1e 693d eff6 6cbd fe33 603d 3c8a 6abd
00000030: d0ba d53c 3c0f a7bc 568d 623d 5c65 ab3c
00000040: f03c 6abc 9955 1dbd c837 6f3c 2003 f1bb
00000050: 0f1a ad3d 5026 e73b 6054 25bb 957e b0bd
00000060: 8404 af3c 808d 423c 8563 853d a222 483d
00000070: 2aeb 483d 1a2a 4b3d 1ae7 febc f6f3 ddbc
00000080: 2113 5ebd 28e9 44bd db12 4dbd 182f cd3c
00000090: 4054 aebc 1639 273d e31e 51bd 2b5e 13bd
000000a0: 90f5 f43b 0cba a3bc 27f1 10bd 3f2b a5bd
000000b0: 2c02 f43c 45e6 913d 48dc 0f3c ea55 473d
000000c0: 60b8 bdbc a0d8 123b c04b 023d 813f 8a3d
000000d0: 55f2 62bd 737e 933d 35fc a63d 92fd 93bd
000000e0: ce9d 713d 57dd 4bbd 6bc0 80bd b200 323d
000000f0: 6468 8f3c c37a 56bd b2db 2b3d 08ba 38bc
00000100: c080 09bc e8ef a9bc a8ed 723c f6f4 7ebd
00000110: 3c71 093d 15c4 04bd a7ee a83d 3cb2 b13c
00000120: 78c7 90bc ad57 62bd d081 4a3c 41d8 ae3d
00000130: 2ef6 6fbd 23db a23d 40ed 2f3c 302a b4bd
00000140: 8611 413d 4695 eebc 45a2 33bd cc1e bebc
00000150: 02c6 a3bd 6004 03bc fae1 623d 841d 90bd
00000160: 386e 1abc 1366 92bd d875 22bd b2c9 003d
00000170: b03f e2bc 5066 82bc 58a7 e63c 2bc4 a9bd
00000180: 7070 c83b 6cc1 88bd 243f 95bc 85f4 acbd
00000190: fa2e 3c3d 828c 553d 9f3b adbd 60df d8bb
000001a0: 71e0 9d3d 7863 abbd 2020 973b aac0 a5bd
000001b0: 7037 2f3c 5908 893d add8 0abd 4072 ed3b
000001c0: f0ef 713c c00a 65bc 9605 83bd 58aa b03c
000001d0: c30c 813d 4d99 a6bd 2096 a83c ca76 16bd
000001e0: 501d 24bd da14 4f3d 07f4 a0bd 5675 6d3d
000001f0: d197 33bd 05ff 9f3d 577f ae3d 5a10 3d3d
00000200: 918e 12bd 7a0f 64bd 1a75 7c3d 0050 a1bd
00000210: 6034 01bc aa9a 4e3d 70b0 fd3c 631c 943d
00000220: 33f5 b2bd 332e 75bd 3076 063c 620b 653d
00000230: 6ebf 793d e89a 6f3c be01 1cbd 0abe 033d
00000240: d8d0 19bd 5ad6 213d 806e f13a 2012 d03c
00000250: 3ead 213d 6790 83bd f2d3 643d cc20 5cbd
00000260: 14a1 90bd f076 cd3c 80d4 693b 5428 003d
00000270: 365b 503d 0f15 913d a176 ad3d b6eb 043d
00000280: a235 413d 28c3 d3bc 20af 083b ecc1 bf3c
00000290: b249 023d 5016 c6bc bc2d dc3c 1d9e 1abd
000002a0: bd94 3fbd 532d 43bd 78f0 d23c 808a 58bb
000002b0: f758 3bbd 6c83 bfbc 9837 3cbc b753 823d
000002c0: e0ab 72bb 0051 7cba 18bd b2bc f017 a2bd
000002d0: 0cd5 bb3c 5eac 85bd 506d 953c 68e7 f63c
000002e0: b8fc e33c bc92 bbbc b034 a33c e1c2 ac3d
000002f0: 3edd 693d 4c00 2bbd c06c c4bb 606a f83c
00000300: 405b c4bc 0507 85bd b530 3abd 0058 0fbd
00000310: 9ac8 7d3d 7280 2b3d 0498 92bd f83f c73c
00000320: b028 74bc f0ac e9bb 0e9c 2d3d 0dd9 b33d
00000330: 2ac1 2abd 8628 673d 4473 90bd d5e4 ac3d
00000340: 20f5 08bb 6a16 6d3d a25d d5bc 4ce8 94bd
00000350: 4d0b 9b3d 6708 963d 54ec e8bc 8650 173d
00000360: 1e60 693d 5492 f13c 8077 40bc d0ea f73b
00000370: 0cbe c9bc 6085 4abc 804d 2c3a 635b 9abd
00000380: 0099 5bbd a07d a3bc 820a 443d caca 54bd
00000390: 32c8 423d 2814 763c 7c99 87bd 861d 8ebd
000003a0: 7c57 9cbc b072 15bd 3e78 4b3d 8ab3 773d
000003b0: 1598 11bd bd10 803d c2da a7bd 8095 6fbb
000003c0: acea 963c ec13 98bc efff 1bbd 9185 863d
000003d0: 69f0 b3bd ec6c df3c 24a3 b2bd c057 543c
000003e0: 40e8 e6bc 3c82 993c 18a5 6bbc 8d3d 44bd
000003f0: 6d37 9e3d 866a 633d 1641 93bd 37c4 b1bd

3.bias f4 [128]
-0.07581492 -0.055186093 -0.0776736 -0.07005301 0.06236317 -0.044575285 0.04590065 -0.0454325
-0.024010904 0.04762567 -0.08622501 0.027326144 -0.025758922 0.074089 -0.0725129 -0.08674795
0.032324113 0.0032068193 -0.07157206 0.012276463 0.056362383 -0.08345442 0.033957638 -0.034591224
0.07511104 -0.0052547306 0.08565951 -0.002203256 -0.08655026 -0.083962716 -0.083087325 -0.07569012
0.026731595 0.035113648 -0.008099422 -0.08611679 -0.041600402 -0.050997812 -0.07073683 0.036233224
0.07930403 -0.026979778 0.07634162 -0.002794832 -0.07481823 0.040598683 0.038991414 -0.041180577
0.043807514 -0.04164038 -0.0415279 -0.08563503 -0.06649705 0.026725419 0.0873351 0.036669113
-0.046282254 -0.038787775 -0.055750027 0.06117388 0.011056751 -0.033805292 0.080803014 0.026936293
-0.03374914 0.064788364 -0.05735986 -0.03651218 0.060097046 -0.075159304 -0.035984147 -0.0540022
-0.017503597 0.062323444 -0.08803468 0.006836675 0.04716038 0.03187879 0.03223747 -0.086235896
0.040906765 -0.07327288 -0.035418715 -0.009382285 -0.03736926 -0.081482634 -0.021544889 0.07153099
0.08423809 -0.06857933 0.010771126 -0.045162454 0.07687869 -0.048847217 0.006958537 0.029742032
0.035258807 -0.010896675 0.08804981 -0.042196527 0.060106702 0.03747972 -0.033233263 0.0019965246
-0.019966088 -0.0028017312 -0.0215469 0.037224837 -0.004724145 -0.013376787 0.057690836 0.048907124
0.038783886 0.05749073 -0.03186835 -0.02257599 0.040025465 0.06484785 0.051103912 0.082914956
0.0010709912 -0.00032890588 0.049196787 -0.02613305 0.024453208 0.036138058 0.06890964 0.06201058
00000000: da44 9bbd d00a 62bd 5613 9fbd f477 8fbd
00000010: 8670 7f3d 9394 36bd 5202 3c3d 6e17 3abd
00000020: 84b2 c4bc 2213 433d bd96 b0bd 14db df3c
00000030: 6004 d3bc f9bb 973d a581 94bd e9a8 b1bd
00000040: 4a66 043d 8029 523b 5f94 92bd 3823 493c
00000050: 3edc 663d 27ea aabd 2a17 0b3d 87af 0dbd
00000060: d1d3 993d e02f acbb 416e af3d 8064 10bb
00000070: 4341 b1bd a5f4 abbd b029 aabd 6c03 9bbd
00000080: 38fc da3c 54d3 0f3d 70b3 04bc 005e b0bd
00000090: 2f65 2abd 15e3 50bd 79de 90bd 4a69 143d
000000a0: 276a a23d b204 ddbc ff58 9c3d 8029 37bb
000000b0: 4d3a 99bd ce4a 263d 76b5 1f3d f7ac 28bd
000000c0: 826f 333d 1a8f 2abd 2919 2abd 6b61 afbd
000000d0: 9b2f 88bd 44ef da3c bfdc b23d 5a32 163d
000000e0: 7692 3dbd eedf 1ebd 245a 64bd 7691 7a3d
000000f0: 6027 353c 6b77 0abd 0d7c a53d 80a9 dc3c
00000100: 8a3c 0abd c3af 843d 2cf2 6abd cc8d 15bd
00000110: 5228 763d 1fed 99bd 1d64 13bd 6931 5dbd
00000120: b463 8fbc de46 7f3d 874b b4bd 3006 e03b
00000130: 3e2b 413d 5693 023d 700b 043d 729c b0bd
00000140: da8d 273d 1710 96bd 3713 11bd 28b8 19bc
00000150: 8210 19bd 5ee0 a6bd e87e b0bc d77e 923d
00000160: 0585 ac3d 5273 8cbd 6079 303c 44fc 38bd
00000170: 9372 9d3d 0514 48bd 7004 e43b 90a5 f33c
00000180: 8a6b 103d f887 32bc 7553 b43d 44d6 2cbd
00000190: 7232 763d 5684 193d 9a1f 08bd 20d8 023b
000001a0: ec8f a3bc 409d 37bb 2083 b0bc 1279 183d
000001b0: 00cd 9abb 502a 5bbc 3a4d 6c3d d652 483d
000001c0: dadb 1e3d 667b 6b3d 6388 02bd 48f1 b8bc
000001d0: bef1 233d f3ce 843d 5652 513d 51cf a93d
000001e0: 8060 8c3a 0071 acb9 9282 493d fa14 d6bc
000001f0: 1852 c83c 8005 143d 7f20 8d3d cefe 7d3d

5.weight f4 [4, 128]
0.044882365 -0.03590646 -0.065082505 -0.012386002 0.04103159 0.07436033 -0.0646507 -0.023907617
-0.026103608 0.057121836 -0.01866746 -0.04217573 -0.015203431 0.08711565 0.062114768 -0.04259408
0.07888446 0.08584244 0.077929445 0.07285666 0.0720767 -0.063998505 -0.009934299 0.061970703
-0.037277855 3.3907592e-05 0.0097934455 -0.061477497 0.04270216 -0.0044139326 0.048018627 -0.011428036
0.06596813 -0.061469145 0.023090236 -0.023941793 0.003070727 0.05738326 -0.024136826 -0.0057462975
0.08646808 -0.026519775 0.084767886 -0.052513316 0.0013821498 0.048259012 -0.08150135 0.058813997
0.0014064685 -0.07602169 0.027449809 0.08482655 0.03789649 -0.071293786 0.011523984 0.04531587
0.008475132 0.043409087 -0.068149835 0.031850286 -0.07699764 -0.013956726 -0.007808797 -0.034214262
0.030478321 -0.06760255 -0.06290451 0.050379448 0.035652384 -0.048013076 -0.03737534 0.039955206
0.009228684 0.051415987 0.08288873 0.039876513 0.058513515 0.035299547 0.027240098 0.008852966
0.051285796 -0.021808319 0.03600952 0.074104525 -0.028881095 0.08069094 -0.029544402 0.08049444
0.030512124 -0.025645643 0.029609554 0.048965283 0.02473668 -0.06387016 0.06624261 -0.05553926
-0.033560503 0.030053787 0.087027945 0.023536645 0.04793585 0.030541934 0.013759755 0.07518572
-0.07769131 0.029495217 0.033627234 0.05544845 -0.011369251 0.043057404 -0.010057554 0.064834855
0.04147429 0.017225288 0.0012079477 0.06383627 0.014756799 -0.030815762 0.034238912 0.054097675
-0.07129057 -0.044624303 -0.027102202 0.043678246 0.087000124 -0.0029800385 -0.026288074 0.08257369
-0.011802517 -0.06744684 0.07121926 -0.030610591 0.05738137 0.013981596 -0.0007824525 -0.0696118
-0.031522766 -0.033814743 0.08357587 0.07470884 -0.052086066 -0.018278673 -0.042233735 -0.083594196
-0.018946916 0.006206788 0.040960513 -0.012674071 0.07503522 0.06806996 0.033677384 0.006277658
0.0051902905 0.001163967 -0.03517105 -0.06263324 -0.058747754 0.03982552 -0.06636819 0.05824644
0.027767316 0.0851276 0.06023825 -0.0668818 -0.084663525 0.0778357 0.08764412 -0.07184999
-0.06569469 -0.018409692 -0.08543455 0.023405798 0.07547399 -0.041787356 -0.07309329 0.029421449
-0.029314302 0.0780428 0.078223936 0.0647183 -0.031511247 0.05450628 0.05855698 0.08788475
-0.073293 -0.07034644 -0.047516547 -0.059811994 0.022988923 -0.05129438 0.0553846 0.0225038
-0.08381671 0.0692404 -0.04823592 -0.04250401 0.009525947 -0.05562012 0.0816673 0.083202876
-0.0779986 0.0044172406 0.08033567 0.056795232 0.03488802 -0.08559712 0.0724917 0.07780612
-0.024149239 -0.08688275 -0.040940214 0.064219646 -0.0786084 -0.041363023 0.056397565 0.007064894
-0.06242688 0.05667127 -0.00319916 -0.054386966 0.041106366 -0.061484255 0.0835237 0.029946566
-0.01631441 0.04422418 -0.004149556 -0.07506875 -0.016999088 0.072951086 0.038089387 -0.07187779
-0.044578817 0.07524405 -0.017348863 0.08348123 -0.013362333 -0.024879135 -0.07341332 -0.08571529
-0.05779978 -0.05711745 0.07717786 0.006931089 0.0775153 0.062835075 0.018579215 -0.06646543
0.024161957 0.048930354 0.037451632 -0.06676534 0.044576503 0.0034838617 -0.009974182 0.005890161
00000000: 92d6 373d a712 13bd fa49 85bd a8ee 4abc
00000010: be10 283d 3b4a 983d 9667 84bd e8d9 c3bc
00000020: 3cd7 d5bc 96f8 693d 80ec 98bc 75c0 2cbd
00000030: d017 79bc b169 b23d 0e6c 7e3d 2177 2ebd
00000040: 2d8e a13d 29ce af3d 7999 9f3d df35 953d
00000050: f39c 933d a611 83bd 78c3 22bc fed4 7d3d
00000060: aab0 18bd 0038 0e38 b074 203c d4cf 7bbd
00000070: 76e8 2e3d c0a2 90bb 2eaf 443d a83c 3bbc
00000080: 4d1a 873d 12c7 7bbd bc27 bd3c 9421 c4bc
00000090: 403e 493b b60a 6b3d 98ba c5bc 704b bcbb
000000a0: 2d16 b13d 0040 d9bc c99a ad3d 3418 57bd
000000b0: 4029 b53a 3eab 453d 2eea a6bd f2e6 703d
000000c0: 4059 b83a 43b1 9bbd 6cde e03c 8bb9 ad3d
000000d0: 5a39 1b3d 7a02 92bd 18cf 3c3c 229d 393d
000000e0: 48db 0a3c bacd 313d 2492 8bbd 7275 023d
000000f0: f0b0 9dbd c0aa 64bc f0e0 ffbb 4124 0cbd
00000100: acad f93c 3573 8abd 14d4 80bd ae5a 4e3d
00000110: 3c08 123d 5ca9 44bd e216 19bd 12a8 233d
00000120: e833 173c 9299 523d 91c1 a93d 8e55 233d
00000130: deab 6f3d 4296 103d a026 df3c 080c 113c
00000140: 0e11 523d 5ca7 b2bc b87e 133d 1dc4 973d
00000150: 0c98 ecbc 4b41 a53d 1a07 f2bc 45da a43d
00000160: 90f4 f93c d016 d2bc bc8f f23c d28f 483d
00000170: 94a4 ca3c 5cce 82bd 35aa 873d 237d 63bd
00000180: bd76 09bd 5c33 f63c b53b b23d eccf c03c
00000190: 6258 443d 1433 fa3c 9870 613c f9fa 993d
000001a0: 9f1c 9fbd f49f f13c b6bc 093d ea1d 633d
000001b0: 1846 3abc f65c 303d 70c8 24bc 23c8 843d
000001c0: f2e0 293d 0c1c 8d3c 0054 9e3a 97bc 823d
000001d0: 80c6 713c 5671 fcbc 1a3e 0c3d 8695 5d3d
000001e0: ca00 92bd f9c7 36bd 7005 debc f6e7 323d
000001f0: 1f2d b23d c04c 43bb 165a d7bc 651c a93d
00000200: 585f 41bc 9221 8abd 67db 913d 10c3 fabc
00000210: ba08 6b3d 1013 653c 801d 4dba a290 8ebd
00000220: 041e 01bd 5481 0abd d329 ab3d f300 993d
00000230: 3358 55bd 28bd 95bc 48fd 2cbd 6f33 abbd
00000240: 9036 9bbc 5062 cb3b 36c6 273d e8a6 4fbc
00000250: 11ac 993d 4368 8b3d 4cf1 093d d0b4 cd3b
00000260: 5013 aa3b 4090 983a 850f 10bd db45 80bd
00000270: 7ca1 70bd 1620 233d 0cec 87bd d293 6e3d
00000280: 4878 e33c 6157 ae3d 62bc 763d 53f9 88bd
00000290: 1264 adbd 5368 9f3d c37e b33d 1626 93bd
000002a0: f08a 86bd eccf 96bc 4ff8 aebd 84bd bf3c
000002b0: 1b92 9a3d 3829 2bbd efb1 95bd 4005 f13c
000002c0: 8c24 f0bc e7d4 9f3d df33 a03d 078b 843d
000002d0: f011 01bd fa41 5f3d 72d9 6f3d ebfc b33d
000002e0: a41a 96bd cb11 90bd b6a0 42bd 6cfd 74bd
000002f0: 4453 bc3c 0e1a 52bd f6da 623d e459 b83c
00000300: 18a8 abbd e9cd 8d3d 0793 45bd af18 2ebd
00000310: b812 1c3c ecd1 63bd 2f41 a73d 4566 aa3d
00000320: bbbd 9fbd 80be 903b 0787 a43d 1ea2 683d
00000330: bee6 0e3d 8b4d afbd 8776 943d d158 9f3d
00000340: a0d4 c5bc 95ef b1bd edb0 27bd 9785 833d
00000350: 71fd a0bd 466c 29bd 2201 673d a080 e73b
00000360: 54b3 7fbd 2220 683d 00a9 51bb dec4 5ebd
00000370: 265f 283d ead6 7bbd 790e ab3d 8052 f53c
00000380: cca5 85bc 6a24 353d 00f9 87bb a5bd 99bd
00000390: ac41 8bbc 6167 953d 9e03 1c3d aa34 93bd
000003a0: 4798 36bd 8d19 9a3d 341f 8ebc 35f8 aa3d
000003b0: b0ed 5abc 54cf cbbc b959 96bd 7f8b afbd
000003c0: 76bf 6cbd fdf3 69bd 6d0f 9e3d 301e e33b
000003d0: 57c0 9e3d adaf 803d 7033 983c 071f 88bd
000003e0: 4cef c53c 326b 483d e266 193d 44bc 88bd
000003f0: da95 363d 8051 643b c06a 23bc 4002 c13b

5.bias f4 [4]
0.012144379 0.040014036 0.0092334375 -0.0030887723
00000000: 38f9 463c c2e5 233d d847 173c 006d 4abb
